data/processed/noises/crop_normal_bias_array.npy (npy, 48128 bytes, 1 tensors)

array f8 [2000, 1, 3]
000000 c9 d0 ac 29 56 44 f4 3f bf 1d ba 9f b0 2e cc bf
       1.2666837337429107 -0.220174863807399
000010 0b cf 28 7f 67 55 c2 bf 75 97 64 df 08 5d 02 40
       -0.14323133191066292 2.2954270794461373
000020 d4 2b 16 55 18 49 e5 bf 50 a4 51 e5 3f 53 cb 3f
       -0.6651727353904513 0.21347807595455714
000030 c0 24 3a cc a4 d2 95 3f 10 b5 f5 3e 09 0f ef bf
       0.02131135460380018 -0.9705854634936788
000040 ac a1 a6 63 22 6e f2 bf d4 a7 d6 3c 4a ca f0 3f
       -1.1518882649053053 1.0493872047904818
000050 c1 38 ab dd 2a 0c b6 bf 00 b6 1a 21 83 24 4c bf
       -0.08612316047512804 -0.0008588447837689084
000060 cc 27 56 e1 de 28 c1 3f 41 d2 c4 1f 8f aa d2 3f
       0.13405977251778578 0.29166010000634307
000070 5c b7 4f 3f 6d 88 b0 3f 76 99 cf ed d0 a6 b1 bf
       0.06458170695961257 -0.06895166212016143
000080 c3 12 c4 0c c6 02 e0 3f db 8a 97 07 82 ec ec bf
       0.5003385781606869 -0.9038705967216986
000090 fd 90 f1 0c 72 dd f7 3f 68 f3 f0 ec 00 67 b3 bf
       1.491563845215807 -0.07579046044061288
0000a0 62 75 c3 ca 7c e9 e1 3f 4e 88 4f 9d 2a e6 de 3f
       0.5597518882965853 0.4827982460248038
0000b0 18 82 a5 9d f6 42 c9 3f 99 c5 c9 07 ee 63 e7 bf
       0.19735605905135922 -0.7309484626877519
0000c0 68 e3 85 b2 c7 87 f3 3f 52 23 4d 92 83 9b d2 3f
       1.2206494306139692 0.2907418183063345
0000d0 f7 71 ca 6c 36 af ee bf 54 a6 a6 49 c0 6a 06 40
       -0.9588882565327016 2.8021245721800287
0000e0 bf 22 6e 5d c8 ee e2 bf 21 9e 6b c8 09 a9 b8 bf
       -0.5916482758339824 -0.09632931845737193
0000f0 dd f5 f4 f7 a1 64 a1 bf 0a cc 86 0e f3 4c dc 3f
       -0.033970891493009005 0.44219662111862645
000100 2a 71 01 4e 87 9f f0 bf e5 46 db 9b e7 02 d5 bf
       -1.0389473960013427 -0.32830229015699636
000110 26 15 75 42 ba 7d e3 bf 80 a0 f3 84 c2 51 85 bf
       -0.6090976045603937 -0.010409850771296414
000120 ec 7e 35 16 fd 93 e7 3f 8e c8 f2 3e 07 0d f9 bf
       0.7368150171059518 -1.565680738346177
000130 21 63 3a d6 6e ea ea bf 51 0a 65 ca 90 db db bf
       -0.8411173042432872 -0.43527621998888316
000140 aa fc 3d 48 49 dc e0 3f cb 6b bd 54 fd 72 f8 bf
       0.5268904124240141 -1.5280736265328752
000150 72 b9 eb 9e 93 d7 f6 3f 0e a1 d3 0e 90 c2 d3 bf
       1.4276310165256203 -0.3087501663963089
000160 63 81 ad c9 b0 16 e4 bf 2a 7a 2f bc 3c ee bf bf
       -0.6277698458689368 -0.1247289618909028
000170 fc 67 88 be fc d2 a0 3f 9c 6e b8 1b 88 88 e8 bf
       0.0328597052177457 -0.7666664639868546
000180 e8 1d 51 84 2b 4e ce 3f 56 ca ed 83 9b d4 e7 bf
       0.23676055870804125 -0.7447030617461887
000190 2a 8f 3d fd 07 2b d8 bf e0 c4 66 fa 7e 28 e0 3f
       -0.3776264164973663 0.5049433603909641
0001a0 c0 45 49 ff 94 32 f6 3f 46 11 2a ba 6a 93 dd bf
       1.3873491260641089 -0.4621226137171742
0001b0 47 18 47 1d a6 9e e2 bf 2c 6e 4a 3e bf c0 d0 bf
       -0.581866318877254 -0.2617643459613841
0001c0 ac d0 6b de a0 c8 e3 3f 49 49 f2 11 ff 30 ce bf
       0.6182407707369939 -0.2358702504757935
0001d0 d4 48 97 f2 45 02 cf 3f 12 66 7d 2c dd fa e5 bf
       0.2422568735624454 -0.6868730420057452
0001e0 ee 2a 14 fb b1 cc f7 3f be 31 23 67 e7 a4 f7 bf
       1.4874744231953474 -1.4777597454841351
0001f0 08 c2 44 0a dc 8a f3 bf 63 cc 5e 88 13 75 fd 3f
       -1.221401252853072 1.8410830809559904
000200 f8 2b bb 1f 99 c0 9b bf b7 32 b7 1b 44 15 c6 bf
       -0.027101891099658076 -0.17252398827840462
000210 88 25 46 01 97 53 f8 3f d7 62 c4 a0 37 50 ee bf
       1.5204076814428351 -0.9472921504958219
000220 61 b5 cf 9f f7 a2 e6 bf 41 2b b2 95 20 57 c0 3f
       -0.7073934670749332 0.12765891370175989
000230 c7 e1 f4 4c ac 9a d3 3f b6 e5 c4 66 84 52 c4 bf
       0.30631549372949646 -0.15876822488807613
000240 cc 49 b8 37 46 6d be 3f 40 cb 42 d4 e9 5b b2 3f
       0.11885489330624138 0.07171498710776536
000250 0b 83 67 9b 40 69 f0 3f 1c 31 cc 21 a1 25 f6 3f
       1.0256963797075425 1.3841868705959035
000260 16 64 80 a1 41 87 cb 3f f6 1f 01 67 24 9b e9 bf
       0.21506519685570485 -0.80018825643583
000270 0a 25 4b ea 9f f3 f6 3f 7c f6 6a 14 62 1f e2 bf
       1.4344786789027375 -0.5663309477601639
000280 ee 11 9b 45 5a a2 de bf db 82 15 4a f4 df bd 3f
       -0.4786592178100183 0.1166985207432946
000290 0f e8 5d c5 82 7c ee 3f bf 7b 5f a3 4c 5c ed bf
       0.9526990752049204 -0.9175170126799158
0002a0 c9 f1 39 b1 49 cf d7 3f e6 ef c3 c3 d3 f4 ed bf
       0.3720268469549209 -0.936136133531815
0002b0 07 cb 55 5b d2 17 e2 bf 9c 17 1d 5d be d8 e6 3f
       -0.565407923115658 0.7139579599977313
0002c0 26 11 f0 26 9b ba e2 bf 4a 26 b6 d7 47 c6 ea bf
       -0.5852790604117544 -0.836704179107252
0002d0 26 b4 f8 b7 d5 91 e1 3f e4 8b df 71 67 77 d8 3f
       0.5490521043008172 0.38228784676010563
0002e0 70 ef 9f 1c 8f 4a eb bf 8a 82 7d 14 52 7a e2 bf
       -0.8528514441563697 -0.5774317169380805
0002f0 1c d6 f6 34 dc 70 e8 bf a2 8b ff 12 2f 09 f3 bf
       -0.7637768778283234 -1.189742159091772
000300 8e 2c b5 10 b9 6b e3 bf be d3 40 48 28 f9 d9 3f
       -0.6068997694323046 0.4058323579404791
000310 42 e5 e1 95 df 24 e5 bf 70 64 6e 16 d6 a9 db 3f
       -0.6607511451140129 0.43224098387287935
000320 de 35 be d1 a8 1b e7 bf 1e ac 89 96 a4 0f f5 bf
       -0.7221263977568773 -1.3163190727598315
000330 5f 17 b2 75 8e 25 f7 3f 3c d7 b0 bd e2 23 ea bf
       1.446669063328464 -0.816880579461873
000340 68 54 52 41 71 10 c5 bf ba 1d e5 a5 dd 0b fe 3f
       -0.1645642823174598 1.8778969269059034
000350 a6 12 48 df 82 a4 f5 bf cb 62 1d c4 04 f7 f6 bf
       -1.3526638719496673 -1.4353072796567854
000360 ab 69 83 c7 f6 4c ff 3f ad b6 98 03 ca 6b f6 bf
       1.9562900346269128 -1.40131570248506
000370 81 e8 60 93 3c 7a f4 bf 44 44 dd a9 7e 7f de bf
       -1.2798429257368584 -0.47653166378319534
000380 4e 4d 78 70 87 de ca 3f 41 8a 96 f9 9c 90 ef bf
       0.20991604797073155 -0.9864029764906449
000390 cb fb 61 11 31 33 01 40 8f 2c e7 db 6d ba d1 3f
       2.149995933344575 0.27700373148827223
0003a0 ca cf 92 8a 49 38 d7 3f 32 82 f1 13 37 34 db bf
       0.3628105023628875 -0.4250619597205826
0003b0 63 07 09 76 0f 4d ea bf 34 00 5e 64 ca 62 e2 3f
       -0.8219067864776942 0.5745593986794177
0003c0 dc 25 54 c8 f4 3c f2 3f 60 10 80 4d ec c2 bb bf
       1.1398818803157758 -0.10844303981872505
0003d0 00 98 34 07 29 bd 5f bf a4 ac 6c f2 f9 06 c4 bf
       -0.0019371891656390083 -0.15646290146955721
0003e0 5a 92 09 a6 26 ec e2 bf 86 cc 0f 97 a8 93 ef bf
       -0.5913270228307497 -0.9867747259544479
0003f0 13 38 1a e3 78 ac f7 3f 7a 2d 6f 9f 43 87 dc 3f
       1.4796074744404037 0.4457558686233011
000400 f5 8f fc 1f 01 dd e3 3f 0e 88 e8 c6 71 24 ca bf
       0.6207280754792907 -0.2042371960861264
000410 0c 39 4e f7 69 f8 e3 bf cf 37 db 27 f5 97 ed 3f
       -0.6240739660441093 0.9247995165294415
000420 52 47 21 fe f9 4e ee 3f 0c 66 af 4f b9 4c a8 3f
       0.9471406901813941 0.047460356690589206
000430 f2 f2 3f 11 19 1f e8 3f 5e bb d5 8c 00 ee f9 3f
       0.7537961327467129 1.6206059934008503
000440 00 ba 28 85 c1 e1 c0 bf ba e0 30 85 1d 75 d0 3f
       -0.1318895244780407 0.2571481514637629
000450 b3 45 d5 68 90 af d7 3f 68 51 07 6e 1e a7 e2 bf
       0.37009058225256836 -0.5829002522464579
000460 6b 3c da d8 f7 6b d2 bf 36 45 e3 20 1f 70 f9 3f
       -0.2878398530674022 1.589873436420317
000470 47 49 69 b9 90 c6 f8 bf 11 18 7b 32 28 56 f0 bf
       -1.5484778635623841 -1.0210344287784248
000480 64 17 cf cc e6 f6 f0 3f f0 32 b0 ad 4d 53 96 3f
       1.0602787018155704 0.021802152372447148
000490 e4 10 f7 99 83 1a ba bf b6 07 0a fd ba 1f ba bf
       -0.10196707257188425 -0.10204666784014091
0004a0 89 d4 e6 d9 b9 d6 f8 bf c4 1b b9 31 f7 ad f3 bf
       -1.5524233352455516 -1.2299720709140596
0004b0 fe ee d4 a7 f4 97 d4 3f 6e 11 fe 9f ad f8 bb bf
       0.32177463903256853 -0.10926327854219206
0004c0 d6 bd 38 67 f4 cc c2 bf e3 fe 51 6a fb 2b fb 3f
       -0.14687972107047526 1.6982378152023834
0004d0 fa f8 0a 87 3f 05 ef bf df 0d 58 6a 59 9b fa bf
       -0.9693906438403979 -1.6629270700512888
0004e0 08 23 ff 68 e0 a8 e7 bf 93 39 81 f7 23 0c f2 bf
       -0.7393648195948979 -1.1279639881282477
0004f0 7b ff 62 35 a8 2c e9 3f 38 95 38 78 41 a9 fc 3f
       0.7867013018330761 1.7913222023137916
000500 32 c0 04 e8 c6 5b dd bf 78 b1 4d 90 a3 ae fb bf
       -0.4587266221815326 -1.7301364552359626
000510 3a 7d 2d bf ba 01 e9 3f a0 41 3f 7d b4 59 e6 3f
       0.7814611181201265 0.6984503217918707
000520 b5 f4 d8 d5 0e d1 d1 3f 3a cc bb 7c e2 e6 f5 3f
       0.27838488467734673 1.368868338814322
000530 1f 3f 2d 2c 27 98 ca 3f 1d 91 99 54 e7 24 cc 3f
       0.20776834160869215 0.21987620955327083
000540 a6 27 0e 44 89 06 cc 3f d5 bc 90 78 5d ff de 3f
       0.21894946883213356 0.4843362500568678
000550 70 d0 89 02 dd bb f0 bf ea ca 54 4c 05 3d ef 3f
       -1.045865068354967 0.97619881542627
000560 c0 08 c5 83 7e fb cd 3f 7a 04 0f 42 5d 18 e0 3f
       0.23423749383989012 0.5029741563995593
000570 c3 32 d1 b6 bd 79 f4 3f 22 54 2f 94 9a 6a c5 bf
       1.2797219411178709 -0.16731579051580164
000580 f6 12 13 32 df 2e f3 3f b9 5f 28 c3 65 2b f6 3f
       1.1989433246646377 1.385595095000083
000590 fc 68 fa 69 40 d7 bd 3f 6e 9c 4b c5 7e 1f d3 3f
       0.11656572902066736 0.2987973143303354
0005a0 56 7f 52 42 1c f1 cc bf c6 aa 7b a3 4c 18 d2 bf
       -0.2261081050719393 -0.2827331158174896
0005b0 a2 f7 21 7a 2c e1 d6 3f a4 62 69 8f d7 0b cd bf
       0.35749351431865695 -0.22692389013788727
0005c0 81 e1 da 02 4e 40 d9 3f 38 6e 43 b2 11 ba cd bf
       0.39454984930809905 -0.23224087909953695
0005d0 ba cd 0f 7d 11 4f e0 3f dc 7f 89 96 f2 88 d1 3f
       0.5096518938648196 0.27398361874474886
0005e0 4c bb 2c 78 15 10 c2 bf cb 97 c6 79 12 e1 e5 3f
       -0.1411158406058014 0.6837246302063645
0005f0 48 64 f7 18 31 09 ec bf ef c5 cc b0 68 36 f3 bf
       -0.8761220443367472 -1.2007834345098407
000600 4e a8 04 62 69 b8 f5 3f 27 e2 d5 c7 cd 79 dd bf
       1.3575223759494466 -0.4605593158262615
000610 c4 c8 6b 88 4e 25 c6 bf 7b ab 8a 2c 31 17 e2 bf
       -0.17301351224120343 -0.5653310651735944
000620 26 92 4b f3 41 52 d9 3f 94 7f d2 14 cb b4 c0 3f
       0.39564560660645254 0.13051737324439883
000630 46 94 9f b2 9c 9d d2 bf 5d 31 41 6f 06 aa e6 bf
       -0.29086987918555385 -0.708255021375901
000640 50 57 ea 5c e8 b5 ea 3f 59 5b ba 71 ff 87 dd bf
       0.8347055258516125 -0.461425648748834
000650 b3 7f 66 b8 1c 3a cf 3f 79 65 cc aa b4 29 ec bf
       0.24396094325947856 -0.8800910316378313
000660 f6 c1 ab 92 9a 9f e3 bf a3 7b 7c a8 e4 21 c7 3f
       -0.6132328858057565 0.18072183825367202
000670 5a 5a 9a 74 38 5c e4 bf fe 07 ee 71 74 31 ff 3f
       -0.6362573888207621 1.949573941267317
000680 c7 57 0a 32 c9 31 d7 bf c4 c1 af e6 c1 8a f1 bf
       -0.3624136913944053 -1.0963763247674345
000690 6c af 32 07 f5 a1 dc 3f ee ae cc c0 02 9d e7 bf
       0.44738507941177974 -0.7379163518539522
0006a0 17 25 7c ce a4 57 f4 bf 06 82 7d 38 79 1c 8d 3f
       -1.271397406179238 0.01421446517605408
0006b0 ca 1b 61 72 e2 06 d6 3f 2e 7e 0a 7a f7 42 de bf
       0.3441702000604293 -0.4728373233610651
0006c0 9c db 53 c4 06 e5 ec bf 9e 60 54 0b 95 6a e6 3f
       -0.9029573282740446 0.7005105229645954
0006d0 91 65 8f a4 c8 fb f5 bf e7 47 06 1a 01 10 d0 bf
       -1.3739706447725875 -0.2509768251558157
0006e0 bd 04 d2 a1 57 75 e0 3f d0 af f2 a4 10 04 a5 bf
       0.5143240128092185 -0.04104663861775715
0006f0 ad 8e 05 bc b5 09 f5 3f 68 0a df 8c 65 1a c3 3f
       1.3148705811117154 0.14924306276778343
000700 d2 64 fc 26 dc ae c6 3f ee a2 07 15 e8 9c f8 3f
       0.1772113027916818 1.5383072682836274
000710 fc 11 25 b3 16 22 d7 bf 43 54 b4 db 65 5f e0 3f
       -0.3614556073628419 0.5116452494718334
000720 58 79 ce f4 a2 fa e4 3f 6f 48 ad 80 ef cc ce bf
       0.6555952817323414 -0.24062913687754725
000730 a8 6e 97 91 85 65 a7 bf f2 4d 12 16 14 f9 f0 3f
       -0.04569642450561889 1.0608101713340798
000740 2a 21 84 f2 53 4f e7 bf 09 17 8c 58 10 55 ed bf
       -0.728433583893126 -0.9166337708890931
000750 33 ae 3e ed 87 28 01 40 61 6c 69 a6 ff 3b db 3f
       2.144790509677273 0.4255370259394962
000760 6c a4 7c bf 5e 22 98 3f f1 c7 15 b6 b4 94 f9 3f
       0.023568611562187078 1.598805152196743
000770 cd d9 ab 1c 61 f1 e7 bf e7 33 cd 49 dd e7 e4 bf
       -0.7482152519212889 -0.6533037606656052
000780 e0 98 f9 24 0f c3 9d 3f 67 e6 98 67 a6 32 c8 bf
       0.0290644041364424 -0.18904571588955152
000790 c5 e3 0d da c9 7a f1 bf d6 7b 9f cd 05 3b fa 3f
       -1.0924776571030048 1.639409831251887
0007a0 c7 62 1b 80 1c 98 da bf ca 4b d8 91 c3 47 ea bf
       -0.41553413877913353 -0.8212602470906571
0007b0 d8 e7 fb 88 01 b5 bb bf cb 74 e6 e8 77 52 f7 bf
       -0.10823068231903166 -1.457633886114581
0007c0 0c ab 89 e4 d9 ce f4 bf 58 59 d0 aa ef f7 f0 3f
       -1.3005007674461835 1.0605312988678488
0007d0 ec 1a b3 0f a3 8a f3 bf 8e 28 9a 9c 43 05 e2 bf
       -1.2213469136492519 -0.563142591346393
0007e0 23 5b 2f 89 49 96 c3 bf 48 1a fb ab d8 a4 f2 bf
       -0.15302390287862364 -1.1652456968310094
0007f0 ca bf f3 9a cd 5c ee bf 18 ad 24 63 d1 1b e8 3f
       -0.9488285089882933 0.7533957420722883
